…
, lr=0.0001, max_grad_norm=0.5, memory_dim=128, model='BabyAI-GoToLocal-v0_ppo_bow_endpool_res_gru_mem_seed1583983379_21-07-08-10-36-34', no_instr=False, no_mem=False, optim_alpha=0.99, optim_eps=1e-05, patience=100, ppo_epochs=4, pretrained_model=None, procs=64, recurrence=20, reward_scale=20.0, save_interval=50, seed=1583983379, task_id_seed=False, tb=False, val_episodes=500, val_interval=1, val_seed=1000000000, value_loss_coef=0.5, warmup=0)
__main__: 2021-07-08 10:36:34,299: CUDA available: False
__main__: 2021-07-08 10:36:34,299: gSCAN(
  (situation_encoder): ConvolutionalNet(
    (conv_1): Conv2d(3, 128, kernel_size=(3, 3), stride=(1, 1), padding=(1, 1))
    (conv_2): Conv2d(3, 128, kernel_size=(5, 5), stride=(1, 1), padding=(2, 2))
    (conv_3): Conv2d(3, 128, kernel_size=(3, 3), stride=(1, 1), padding=(1, 1))
    (dropout): Dropout(p=0.5, inplace=False)
    (relu): ReLU()
    (layers): Sequential(
      (0): ReLU()
      (1): Dropout(p=0.5, inplace=False)
    )
  )
  (visual_attention): Attention(
    (key_layer): Linear(in_features=384, out_features=128, bias=False)
    (query_layer): Linear(in_features=128, out_features=128, bias=False)
    (energy_layer): Linear(in_features=128, out_features=1, bias=False)
  )
  (word_embedding): Embedding(100, 128)
  (instr_rnn): LSTM(128, 128, num_layers=2, batch_first=True, bidirectional=True)
  (enc_hidden_to_dec_hidden): Linear(in_features=128, out_features=128, bias=True)
  (textual_attention): Attention(
    (key_layer): Linear(in_features=128, out_features=128, bias=False)
    (query_layer): Linear(in_features=128, out_features=128, bias=False)
    (energy_layer): Linear(in_features=128, out_features=1, bias=False)
  )
  (memory_rnn): LSTMCell(128, 128)
  (actor): Sequential(
    (0): Linear(in_features=128, out_features=64, bias=True)
    (1): Tanh()
    (2): Linear(in_features=64, out_features=7, bias=True)
  )
  (critic): Sequential(
    (0): Linear(in_features=128, out_features=64, bias=True)
    (1): Tanh()
    (2): Linear(in_features=64, out_features=1, bias=True)
  )
)
torch.Size([64])
